mat/envs/aps/lib/gnn_olp/partial_model/epoch=507-step=773900.ckpt (torch, 403264 bytes, 330 tensors)

model.convs1.0.weight f4 [16, 5]
0	0x3f1a5d25	0.6029838
1	0x3f9d3b2a	1.228368
2	0xbf0c6abf	-0.5485038
3	0x3f5cedc4	0.863003
4	0xbd86a439	-0.06574292
5	0x3ea66709	0.32500485
6	0xbf34b0b2	-0.70582116
7	0xbdac559b	-0.084147654
8	0x3f8b1444	1.086556
9	0x3d66c908	0.056344062
10	0x3ee54efe	0.4478683
11	0xbdd6194f	-0.10454046
12	0x3e7f07f4	0.24905378
13	0x3e3cd6f7	0.18441378
14	0x3fddafb7	1.7319249
15	0xbd2690c2	-0.040665396
16	0x3ea1e04c	0.31616437
17	0x3da4d5c9	0.08048589
18	0xbdf73ab1	-0.12071741
19	0xbca67f21	-0.020324292
20	0xbf37fb16	-0.718675
21	0x3ca56797	0.020190997
22	0xbe2f2a5a	-0.17106
23	0x3eabea9a	0.33577424
24	0xbf93cf26	-1.1547592
25	0x3d00353c	0.03130077
26	0x3c4b1b05	0.012396579
27	0xbedb2219	-0.42799452
28	0xbe49c298	-0.19703138
29	0xc01aec7a	-2.4206834
30	0x3f05178a	0.5198904
31	0xbfcd0292	-1.6016409
32	0x3e8209da	0.2539814
33	0xbfb4e645	-1.4132773
34	0xbf2d37d6	-0.67663324
35	0x3f5a7295	0.8533109
36	0xbe9a807e	-0.30176157
37	0x3d4a6129	0.049409065
38	0x3d6830e5	0.056687254
39	0xbf48ea31	-0.7848235
40	0x3f80ee8f	1.0072802
41	0xbd224e5b	-0.039625507
42	0x3e505237	0.20343862
43	0x3e9eda4d	0.31025925
44	0xbe05e5d1	-0.13075949
45	0xbf13e84b	-0.57776326
46	0x3efbee9c	0.49205482
47	0x3ea136e2	0.31487185
48	0xbbc4fee7	-0.006011832
49	0x3f0ca84b	0.54944295
50	0xbf8e5533	-1.1119751
51	0xbe925505	-0.2858049
52	0xbf39aeec	-0.72532535
53	0x3e4f1eb0	0.2022655
54	0x3ed4f3a0	0.4159212
55	0x3f118ec4	0.5685847
56	0x3e80e3ae	0.25173706
57	0x3f116d61	0.56807524
58	0x3eb6062f	0.35551593
59	0xbe461932	-0.19345549
60	0x3e8099e9	0.25117424
61	0xbe0833e1	-0.1330104
62	0x3e0dbb76	0.13841042
63	0xbe9c9aad	-0.30586758
64	0x3fdc9f96	1.7236202
65	0xbee0aee3	-0.43883428
66	0x3ec43de2	0.38328463
67	0x3e74e629	0.23915924
68	0xbf18aaac	-0.59635425
69	0xbef2dd17	-0.47434303
70	0x3f936e38	1.1518011
71	0x3d57493f	0.052560087
72	0x3ecfa78c	0.40557516
73	0xbeb456f4	-0.3522259
74	0xbffc9066	-1.9731567
75	0xbf100823	-0.56262416
76	0xbf675cf4	-0.9037621
77	0x3f596ece	0.849347
78	0xbe0dc58e	-0.13844892
79	0x3efec781	0.49761584

model.convs1.0.bias f4 [16]
0	0xbeba2838	-0.3635881
1	0xbf83c5fd	-1.0294796
2	0x3f2250d1	0.63404566
3	0xbe8c691f	-0.2742395
4	0x3ff497f7	1.9108876
5	0x3efa1651	0.4884515
6	0x3e4e8154	0.20166522
7	0xbf32ee2f	-0.6989469
8	0x3eb87f34	0.36034548
9	0x3f6c4996	0.92299783
10	0xbd927b54	-0.07152429
11	0xbf49d38b	-0.78838414
12	0x3e7b5003	0.24542241
13	0x3e89931b	0.26870045
14	0xbe1b69ac	-0.1517703
15	0xbdf0e87d	-0.117630936

model.convs1.1.weight f4 [16, 16]
0	0xbea46c27	-0.32113764
1	0x3f31394f	0.6922807
2	0x3d8d020b	0.06885155
3	0xbf04f2e2	-0.5193311
4	0x3eaee1fe	0.34156793
5	0xbea4ff9c	-0.32226264
6	0x3dff20de	0.12457441
7	0xbdfdfebf	-0.124021046
8	0xbf898429	-1.0743457
9	0x3f19ee56	0.60129297
10	0xbeacce04	-0.33750927
11	0x3f50e1d2	0.81594574
12	0xbd9ac77f	-0.07557582
13	0xbee6cbb5	-0.4507729
14	0x3c3cab34	0.011515427
15	0x3d726f2e	0.05918806
16	0xbee020ca	-0.43775016
17	0xbf6a2cde	-0.9147471
18	0x3ed003f0	0.40628004
19	0xbe3c455a	-0.1838583
20	0xbeae39bc	-0.34028423
21	0x3caa4d33	0.020788765
22	0xbe7a80bd	-0.24463172
23	0x3cf3a829	0.029743271
24	0x3ce83aad	0.028348291
25	0xbeca5982	-0.39521414
26	0x3fa2b9a1	1.27129
27	0x3f393cd3	0.72358435
28	0xbf16224d	-0.5864609
29	0x3f46d1ff	0.7766418
30	0xbf4c51d2	-0.7981235
31	0x3ef41882	0.47674948
32	0x3dd39d07	0.10332685
33	0xbe61121a	-0.21979561
34	0x3d8f8da1	0.070094354
35	0x3ecdfc60	0.4023161
36	0xbf946414	-1.1593041
37	0xbf3a2962	-0.72719395
38	0xbebccfde	-0.3687734
39	0x3ec9b6ef	0.3939738
40	0x3f689132	0.9084655
41	0xbe6659a3	-0.22495131
42	0xbe512670	-0.20424819
43	0x3f0d9df7	0.5531916
44	0x3eed4c39	0.46347216
45	0x3e45d71d	0.1932034
46	0x3e97e709	0.29668453
47	0x3e8d35cf	0.27580115
48	0x3e9abd9b	0.30222782
49	0x3ec7d50c	0.3902973
50	0xbe364a7f	-0.17801856
51	0x3f2809c0	0.6563988
52	0xbf523964	-0.8211882
53	0x3f114b58	0.5675559
54	0xbe9c4731	-0.30523065
55	0xbef776ff	-0.48332974
56	0x3e0e285a	0.1388258
57	0xbedfb2a8	-0.4369099
58	0x3e764b26	0.24052104
59	0xbddd7472	-0.10813226
60	0x3ed3eb8c	0.41390646
61	0x3eb75908	0.35810113
62	0x3ea9c149	0.33155277
63	0xbe830f05	-0.25597396
64	0xbed4511f	-0.4146814
65	0xbe0b376a	-0.13595358
66	0xbf78c102	-0.97169507
67	0x3e8e49b0	0.27790594
68	0x3f1ab4d3	0.60432166
69	0x3e9fb23c	0.3119067
70	0xbd43b566	-0.047780417
71	0x3d641927	0.05568805
72	0x3f5cc27c	0.8623426
73	0xbf1e259f	-0.61776155
74	0xbe947845	-0.28998008
75	0x3dc2ba11	0.095081456
76	0xbfafef97	-1.3744992
77	0xbe41664e	-0.18886682
78	0x3f5ec9e7	0.8702683
79	0x3d56f323	0.052477967
80	0x3f524d67	0.82149357
81	0x3ee6c9b4	0.45075762
82	0x3d6fd8e5	0.058556456
83	0x3dd26c2d	0.10274539
84	0xbea6b073	-0.32556495
85	0xbe34f936	-0.17673191
86	0xbf1b7b68	-0.6073518
87	0x3dcef0e6	0.101045415
88	0x3d6c58b8	0.057701796
89	0x3fbbe9d3	1.4680732
90	0x3eab21da	0.33424264
91	0x3e65fb4d	0.22459145
92	0x3e045b35	0.12925418
93	0x3c1c9c44	0.009558741
94	0xbc207d7e	-0.009795545
95	0xbf2e4642	-0.68075955
96	0xbf89fc46	-1.0780113
97	0x3f1865b8	0.5953021
98	0x3f41d433	0.75714415
99	0xbf0cc0b2	-0.5498153
100	0x3f02d716	0.51109445
101	0xbf08a150	-0.53371143
102	0x3e038c2e	0.12846443
103	0x3d7ece4d	0.062208463
104	0x3e9d444c	0.3071617
105	0xbecc7252	-0.3993097
106	0xbf1412dd	-0.57841283
107	0x3b357c8b	0.0027692642
108	0x3e9fb3e6	0.3119194
109	0xbec35f15	-0.3815848
110	0x3eabedce	0.33579868
111	0x3ef0fd96	0.4706847
112	0xbd57a894	-0.052651003
113	0xbe487971	-0.19577576
114	0x3e5344e4	0.20631748
115	0x3d03bf89	0.032165084
116	0x3e66c6ac	0.22536725
117	0x3cb58076	0.022155982
118	0x3e0dbca3	0.1384149
119	0x3ef41217	0.4767005
120	0xbe975622	-0.29557902
121	0x3e97db14	0.2965933
122	0xbe6e4228	-0.23267424
123	0x3dd4565f	0.103680365
124	0xbec908f0	-0.3926463
125	0x3e8eac34	0.27865756
126	0x3e35a0fb	0.1773719
127	0x3dabbe2e	0.08385883
128	0x3eb7a49d	0.35867777
129	0x3e6d188a	0.23153892
130	0xbf3b6fe8	-0.7321763
131	0x3f523d88	0.8212514
132	0xbe4e24c7	-0.20131217
133	0x3f8040e3	1.0019802
134	0xbfa0bc4d	-1.2557465
135	0x3fcb69f7	1.5891713
136	0xbdc00a4b	-0.09376963
137	0x3f52baed	0.82316476
138	0xbf0d9ae6	-0.5531448
139	0x3eb8320c	0.35975683
140	0xbdc3cebc	-0.09560916
141	0xbc9a6614	-0.018847503
142	0xbeab93a9	-0.33511093
143	0x3fc00d61	1.5004083
144	0x3bc643eb	0.006050577
145	0xbd9f7e94	-0.07787815
146	0x3f952236	1.1651065
147	0xc0066009	-2.0996115
148	0xbe18b638	-0.14913261
149	0xbea4484e	-0.32086414
150	0x3edc2ac2	0.43001372
151	0xbd550faa	-0.05201689
152	0xbde5c6cd	-0.11219559
153	0xbd72beac	-0.05926387
154	0xbea56c76	-0.32309312
155	0x3c2160ef	0.009849771
156	0x3f893c30	1.0721493
157	0xbe462ca7	-0.19352971
158	0xbe57376c	-0.21017236
159	0xbf0e2574	-0.555259
160	0x3d7a6255	0.061128933
161	0xbf29e5fa	-0.6636654
162	0x3e14c02c	0.14526433
163	0xbf7acf7e	-0.9797286
164	0x3f2b6e78	0.66965437
165	0xbec0db33	-0.37667236
166	0xbf659bee	-0.89691055
167	0x3d39d549	0.04536942
168	0xbcf88bfd	-0.03034019
169	0x3f88f418	1.0699492
170	0xbf6f1fa7	-0.9340767
171	0x3ebe8b4d	0.37215653
172	0xbe80188a	-0.25018722
173	0xbe56bc9a	-0.20970383
174	0x3efe1914	0.49628508
175	0x3e9afa99	0.30269316
176	0xbf3b79c1	-0.73232657
177	0xbe9a0de0	-0.3008871
178	0xbeb9a6ab	-0.3625997
179	0x3e843dd1	0.25828412
180	0xbe0e17b0	-0.13876224
181	0x3ec379e2	0.38178927
182	0xbed41e0c	-0.41429174
183	0xbf3e90e3	-0.7443983
184	0x3ee52326	0.4475338
185	0xbf214c8e	-0.6300744
186	0x3ea78844	0.3272115
187	0xbedc0e63	-0.42979726
188	0xbfabdc20	-1.3426552
189	0x3f469b29	0.77580506
190	0x3fbf8847	1.4963464
191	0xbdea32be	-0.114354596
192	0xbe8ce048	-0.27514863
193	0xbe8028ad	-0.25031033
194	0xbf5d6f93	-0.86498374
195	0x3e26c595	0.16286309
196	0xbe34c1c8	-0.17652047
197	0x3d63cec8	0.055617124
198	0xbebb367a	-0.36565
199	0x3c114595	0.008866687
200	0x3f817591	1.0114003
201	0xbef50525	-0.47855487
202	0xbe911ccb	-0.2834228
203	0x3f288b3b	0.6583745
204	0xbe5d67de	-0.21621653
205	0x3e87866a	0.26469737
206	0x3f475da7	0.7787728
207	0x3f31fbb3	0.6952469
208	0xbf6377df	-0.88854784
209	0xbdd3d218	-0.103428066
210	0x3f6e84d1	0.9317141
211	0x3ed62a6d	0.41829243
212	0x3f00e650	0.5035143
213	0xbec486d9	-0.3838413
214	0x3ec0ec84	0.37680447
215	0x3e8d6bef	0.2762141
216	0xbf7d6224	-0.98977876
217	0x3ee22c14	0.44174254
218	0x3e857e74	0.2607304
219	0x3efbc4a3	0.4917346
220	0x3db7cd7b	0.08974739
221	0x3de438b8	0.11143631
222	0xbe9abaeb	-0.30220732
223	0x3f55482d	0.83313257
224	0x3eaa2ac9	0.33235767
225	0xbf16ab74	-0.58855367
226	0x3e5147c2	0.2043753
227	0xbf06f1bb	-0.527126
228	0x3f22ce5b	0.63596123
229	0xbd305ec6	-0.043059133
230	0xbe31bef1	-0.17357995
231	0xbe6b55eb	-0.22981994
232	0x3f1bc727	0.6085076
233	0xbe813149	-0.25232914
234	0xbd45bae4	-0.048273936
235	0xbedd3147	-0.43201658
236	0x3df275fb	0.11838909
237	0x3e8012ea	0.2501443
238	0xbf1c5d81	-0.61080176
239	0xbeccf867	-0.40033266
240	0xbdc91c8f	-0.098199
241	0x3e2b5b50	0.16734052
242	0x3ebb642f	0.36599872
243	0x3eb9d378	0.3629415
244	0xbda05ce1	-0.07830215
245	0x3ec296c2	0.38005644
246	0x3ebe8b3d	0.37215605
247	0x3e0016c7	0.12508689
248	0xbf1543cb	-0.5830657
249	0x3f027917	0.5096602
250	0x3f38e027	0.7221703
251	0x38f9fa94	0.00011919919
252	0xbf6a8258	-0.9160514
253	0x3e2fb9c0	0.17160702
254	0xbf611e01	-0.8793641
255	0xbeb8452f	-0.35990283

model.convs1.1.bias f4 [16]
0	0x3e20078a	0.15627876
1	0x3a16a649	0.00057468243
2	0x3f12c377	0.57329506
3	0xbdb271e0	-0.08713126
4	0x3ee01494	0.437657
5	0x3e7321a1	0.23743297
6	0x3eeb160e	0.45915264
7	0xbe96fb36	-0.29488534
8	0xbcc6f187	-0.024285091
9	0x3e48ecf1	0.19621636
10	0x3f0c6948	0.54848146
11	0x3e6a8808	0.22903454
12	0x3dad1d47	0.0845285
13	0x3f134931	0.57533556
14	0x3f35e2c9	0.7104917
15	0x3e686d94	0.2269805

model.convs1.2.weight f4 [32, 16]
0	0x3ea2834a	0.3174079
1	0xbe243a83	-0.16037945
2	0x3f09a019	0.53759915
3	0xbe46d816	-0.19418368
4	0x3edd5f09	0.4323657
5	0x3f1b52dc	0.6067331
6	0xbd175926	-0.036950253
7	0x3d832781	0.06404019
8	0xbec505f3	-0.384811
9	0x3e3c2dc3	0.18376832
10	0xbf3f61d1	-0.7475863
11	0xbd560607	-0.052251842
12	0xbe89abd3	-0.26888904
13	0xbc26f3d4	-0.010189969
14	0xbed39d56	-0.41330975
15	0xbe9e8ef4	-0.3096844
16	0xbf0622b7	-0.5239672
17	0x3e87ccb5	0.26523367
18	0x3ece0071	0.40234712
19	0xbdad8292	-0.0847217
20	0x3ed5d572	0.41764408
21	0xbedf957f	-0.43668744
22	0x3f05efdc	0.5231912
23	0xbe4a445d	-0.19752641
24	0x3f3206ce	0.69541633
25	0xbe3632e9	-0.17792858
26	0x3f1f2242	0.6216165
27	0xbf3d7a2b	-0.7401454
28	0xbf072389	-0.527886
29	0xbf6e9e21	-0.93210036
30	0x3df8fe44	0.12157872
31	0xbf2bc256	-0.6709341
32	0x3f7290b7	0.9475207
33	0x3d284d39	0.04108927
34	0x3f1a8ba8	0.6036935
35	0x3f1aec83	0.6051714
36	0xbd938414	-0.07202926
37	0xbe872e84	-0.26402676
38	0x3dc7319d	0.0972626
39	0x3e3a500e	0.18194601
40	0x3eb6c54c	0.356974
41	0xbe8a39ea	-0.2699731
42	0xbf501367	-0.81279606
43	0xbea48ef6	-0.3214032
44	0xbf1dca7b	-0.61637086
45	0xbe6571e1	-0.22406723
46	0xbfe361c6	-1.7764213
47	0x3f9eefd7	1.2416943
48	0x3f0c718c	0.5486076
49	0x3f6b5560	0.91927147
50	0x3eada5c6	0.33915538
51	0xbca3b43c	-0.019983403
52	0xbf69b470	-0.9129095
53	0x3ebee515	0.3728415
54	0xbf354f41	-0.70824057
55	0x3e435331	0.19074704
56	0xbe36b0b1	-0.1784084
57	0x3e1214fa	0.14265814
58	0x3da01e78	0.078183115
59	0xbf13b122	-0.5769216
60	0xbea1a9e3	-0.31574926
61	0xbe8953eb	-0.26821837
62	0xbe867195	-0.2625853
63	0x3f13294a	0.5748488
64	0xbd8cff9b	-0.068846904
65	0xbf14f08a	-0.58179533
66	0xbcc1784c	-0.023616932
67	0x3e9140b2	0.2836967
68	0xbdf5bf44	-0.11999372
69	0x3e966de7	0.29380724
70	0x3ea1f624	0.31633103
71	0xbee95386	-0.45571536
72	0xbf2d5045	-0.67700607
73	0x3f1a08e5	0.6016982
74	0x3f3727b9	0.71544987
75	0x3f09c764	0.5381987
76	0xbee1f245	-0.4413015
77	0xbf0f8c9a	-0.56073916
78	0x3f26f179	0.6521221
79	0xbf4945f7	-0.7862238
80	0xbe2d09b0	-0.16898227
81	0xbf5114f2	-0.81672585
82	0x3dd6db24	0.104910165
83	0xbd848fcf	-0.06472742
84	0x3f043953	0.5164997
85	0xbf0e582b	-0.55603284
86	0x3e22ebea	0.15910307
87	0xbe4b26e8	-0.1983906
88	0x3c4674d4	0.012112815
89	0xbf19c5ea	-0.6006762
90	0x3c748c69	0.0149260545
91	0x3f44a88f	0.768197
92	0x3f45e701	0.7730561
93	0xbf715024	-0.9426291
94	0xbe54e541	-0.20790578
95	0x3e6ce684	0.2313481
96	0x3dd486ef	0.10377299
97	0xbec3d658	-0.3824947
98	0xbf53841e	-0.8262347
99	0xbf405167	-0.7512421
100	0x3eec0aeb	0.4610208
101	0x3d9a486b	0.07533344
102	0x3f256f9e	0.6462344
103	0xbf98caa9	-1.1936847
104	0x3ea8a1e7	0.32936022
105	0xbecf821a	-0.40528947
106	0x3f67efc3	0.9060022
107	0x3c270a73	0.010195362
108	0x3e5ade0b	0.21373765
109	0x3f54dfaa	0.83153784
110	0x3ea507a6	0.32232398
111	0x3f77c750	0.967885
112	0xbdddc3c6	-0.108283564
113	0x3e17b3fd	0.14814754
114	0xbf1a7486	-0.6033405
115	0x3daf34b7	0.085549764
116	0x3f211fdb	0.6293923
117	0x3f087cbf	0.5331535
118	0xbf3d3a2a	-0.73916876
119	0x3df51398	0.11966628
120	0xbda108a5	-0.07862977
121	0x3ec17651	0.3778558
122	0x3f31aa90	0.6940088
123	0x3e8e1d2a	0.27756625
124	0x3ed052b8	0.4068811
125	0xbdfa93d5	-0.12235228
126	0xbdf3be7d	-0.11901567
127	0xbb297cb3	-0.002586168
128	0x3ebbee96	0.36705464
129	0x3eafe4d6	0.34354275
130	0x3f228e6e	0.6349858
131	0x3da0dc5f	0.078545325
132	0xbeafda3c	-0.34346187
133	0x3f0572ca	0.5212828
134	0x3ec98b0f	0.39363906
135	0xbf3b6132	-0.73195183
136	0xbed4e0a1	-0.41577628
137	0xbd3fe536	-0.046849452
138	0xbf3e510d	-0.74342424
139	0x3cd64441	0.026155593
140	0x3ef0d78b	0.47039446
141	0xbf65fafa	-0.89836085
142	0xbe9d37ea	-0.30706722
143	0x3eba52df	0.3639135
144	0xbf605510	-0.87629795
145	0x3f1024d3	0.5630619
146	0x3eb25d66	0.34836882
147	0xbf470892	-0.7774745
148	0xbeb3835c	-0.35061157
149	0x3f1693ca	0.5881926
150	0x3f3b565c	0.7317865
151	0x3ec2c4fd	0.38040915
152	0xbecb4d06	-0.39707202
153	0x3ebaa64f	0.36455008
154	0x3e30511e	0.17218444
155	0x3e452bca	0.19254985
156	0x3e92a1d0	0.28639078
157	0x3cd57267	0.026055528
158	0xbd71a2ef	-0.058993276
159	0xbf3b0c2e	-0.7306546
160	0xbd8f2265	-0.06988982
161	0x3f0f95b4	0.56087804
162	0xbe0321a4	-0.12805802
163	0x3e9ddb53	0.30831394
164	0xbf625f50	-0.88426685
165	0xbf7499c5	-0.95547134
166	0x3e6cfbf5	0.23142989
167	0x3d9f7123	0.07785251
168	0xbefa97bf	-0.48943898
169	0x3e6d5f3a	0.23180857
170	0xbf16d72e	-0.5892209
171	0x3e0dc621	0.13845111
172	0xbe9f9d83	-0.3117486
173	0x3ee364f0	0.44412947
174	0xbe6e5298	-0.23273695
175	0x3edc35fe	0.43009943
176	0x3ef69b70	0.48165464
177	0x3ea48217	0.321305
178	0xbf43c978	-0.7647929
179	0xbea2b165	-0.31775966
180	0x3ef9bc72	0.48776585
181	0xbdcf012b	-0.10107645
182	0x3f56d374	0.839164
183	0x3f26cb65	0.65154105
184	0x3f05ba90	0.52237797
185	0xbf11c546	-0.5694164
186	0xbe207d01	-0.15672685
187	0xbf31c28a	-0.6943747
188	0x3eb6cbdd	0.3570241
189	0xbf603770	-0.8758459
190	0x3d6cd0e7	0.057816412
191	0xbf0e3b93	-0.55559653
192	0x3f14f154	0.5818074
193	0xbe40aeda	-0.188167
194	0xbe628702	-0.22121814
195	0x3e89aaa5	0.26888004
196	0xbddd43b2	-0.108039275
197	0x3d53aa71	0.051676217
198	0xba8c3524	-0.001069699
199	0xbf10744d	-0.5642746
200	0x3f459245	0.77176315
201	0x3c9b54e4	0.018961377
202	0x3ee64769	0.44976357
203	0xbe5bbaef	-0.21458028
204	0xbe3aa178	-0.18225658
205	0xbee38535	-0.44437566
206	0xbf42527b	-0.75907105
207	0xbe995746	-0.29949397
208	0xbf153181	-0.5827866
209	0x3ebb32e4	0.36562264
210	0xbca0c9df	-0.01962751
211	0x3e8fdade	0.2809667
212	0x3ef0da06	0.4704134
213	0xbf468c86	-0.7755817
214	0x3f92a318	1.1456022
215	0x3ef1213e	0.47095674
216	0xbeba2aa2	-0.3636065
217	0x3f27af4e	0.6550187
218	0xbf48080a	-0.78137267
219	0x3f599952	0.84999573
220	0xbf8e02d0	-1.1094608
221	0x3f484853	0.7823536
222	0xbd1c1e34	-0.03811474
223	0xbe082b5b	-0.13297789
224	0x3eb0c139	0.34522417
225	0xbf6dc29d	-0.9287508
226	0x3f06413f	0.5244331
227	0xbd90ff3a	-0.070799306
228	0x3f8b707a	1.08937
229	0x3e15857a	0.14601699
230	0x3e94fa02	0.2909699
231	0xbedd44c0	-0.43216515
232	0xbe235407	-0.15950023
233	0x3e489d55	0.19591267
234	0xbe973da9	-0.2953923
235	0xbef7f522	-0.4842921
236	0xbf0933f8	-0.53594923
237	0xbf2df58b	-0.67952794
238	0xbd4d7aaa	-0.05016581
239	0xbe7edbd7	-0.2488855
240	0x3e8fafa3	0.28063688
241	0x3eec5da2	0.46165186
242	0x3db20219	0.08691806
243	0x3edb1e53	0.42796573
244	0x3f12f6a6	0.57407606
245	0xbf3e5abf	-0.7435722
246	0xbeb66ca0	-0.3562975
247	0xbc8e81fc	-0.017395966
248	0xbf0204c2	-0.5078851
249	0x3f0e0862	0.5548154
250	0xbee8c5ba	-0.45463353
251	0x3ee1064d	0.4395012
252	0xbc93a783	-0.018024212
253	0xbf76835d	-0.96294194
254	0x3f5c62c8	0.8608823
255	0x3f05bc22	0.5224019

model.convs1.2.bias f4 [32]
0	0xbf0f3c7b	-0.5595166
1	0x3e4991b3	0.19684486
2	0xbf2b5f43	-0.6694223
3	0x3e5b34c0	0.21406841
4	0x3e0ef832	0.13961866
5	0xbe8b447e	-0.27200693
6	0x3f93e7f4	1.1555161
7	0x3f719fcf	0.94384474
8	0x3e570e75	0.21001609
9	0xbe1d9ebc	-0.15392584
10	0xbef2f5f9	-0.47453287
11	0xbf209944	-0.62733865
12	0xbeee6d2b	-0.46567664
13	0x3f4d9824	0.80310273
14	0x3ebdab52	0.3704477
15	0x3f41f3d7	0.75762695
16	0x3e39591b	0.18100397
17	0x3f06ef88	0.52709246
18	0xbeca6e2f	-0.39537188
19	0x3dce4062	0.10070874
20	0xbf51ee91	-0.8200465
21	0xbe0ab03c	-0.1354379
22	0xbe940f06	-0.28917712
23	0x3ea2f98b	0.3183101
24	0x3ec65ce1	0.38742736
25	0x3eb6da31	0.35713342
26	0x3f7163ed	0.942931
27	0x3e30ee3b	0.17278378
28	0x3f0d23d9	0.55132824
29	0x3f26e5f7	0.6519465
30	0x3e804df5	0.25059476
31	0x3cfb4acf	0.03067532

model.convs1.3.weight f4 [32, 32]
0	0xbd9e1ac2	-0.077199474
1	0xbd3b37dc	-0.04570757
2	0x3e317e41	0.17333318
3	0xbf06c05f	-0.52637285
4	0x3f41e690	0.75742435
5	0x3d725a71	0.059168283
6	0x3faf05be	1.3673627
7	0xbe168800	-0.14700317
8	0xbecc8da6	-0.3995182
9	0x3ebed6ed	0.3727335
10	0x3da3ce71	0.0799836
11	0xbb706ea8	-0.003668705
12	0x3e5b91dd	0.21442361
13	0xbe8ecafb	-0.27889237
14	0x3f3dd15f	0.741476
15	0xbebf5e81	-0.37376788
16	0xbe7817c9	-0.24227823
17	0x3d9cfa9c	0.076649874
18	0xbdacfd07	-0.08446699
19	0xbe617200	-0.22016144
20	0xbe924ae1	-0.28572753
21	0x3e6ec5a8	0.23317587
22	0xbeb6548c	-0.3561138
23	0xbe488d61	-0.19585182
24	0x3ec0382b	0.37542853
25	0x3dcd5489	0.100258894
26	0xbec53291	-0.38515142
27	0x3d85b82e	0.0652927
28	0xbdf171b4	-0.11789265
29	0xbf0b97c8	-0.54528475
30	0x3dd5c14d	0.1043726
31	0x3f5b9c61	0.8578549
32	0xbed09284	-0.40736783
33	0xbf20e134	-0.6284363
34	0xbf005da6	-0.50142896
35	0x3d054b4f	0.032542523
36	0x3e99b392	0.30019814
37	0xbea0176b	-0.31267866
38	0x3f24d4af	0.6438703
39	0x3ebe8b00	0.37215424
40	0xbf1f96e8	-0.6233964
41	0x3f3b1462	0.73077977
42	0xba8867d6	-0.0010406922
43	0xbf0dd40f	-0.554017
44	0xbebad648	-0.3649161
45	0xbe97e2a2	-0.29665095
46	0xbedf075a	-0.43560296
47	0x3e8c09a3	0.27351102
48	0x3e727a9b	0.23679583
49	0x3f5ea9bd	0.8697775
50	0x3e989c3a	0.2980669
51	0x3f05d13f	0.5227241
52	0x3f05963f	0.5218238
53	0xbea32ea8	-0.31871533
54	0x3f05f2b8	0.52323484
55	0x3e6a923b	0.22907345
56	0xbe918d6a	-0.28428203
57	0xbf8f9271	-1.1216565
58	0xbe479fd8	-0.1949457
59	0xbedac9d6	-0.42732114
60	0xbf077a07	-0.52920574
61	0xbdebbc66	-0.115105435
62	0xbeca37d0	-0.39495707
63	0xbf07b5e6	-0.5301193
64	0xbdc5fad9	-0.09666986
65	0x3f7540ee	0.958022
66	0x399302cc	0.0002804011
67	0xbe8188ab	-0.25299582
68	0x3eafc748	0.34331727
69	0x3f688e27	0.9084191
70	0x3ebe8109	0.3720782
71	0x3f25da52	0.64786255
72	0xbebd143a	-0.36929494
73	0xbe6d95f9	-0.23201741
74	0xbeb054e6	-0.34439772
75	0xbe874b17	-0.26424477
76	0x3e3eaebe	0.18621346
77	0xbb833980	-0.0040046573
78	0x3dc3630f	0.09540378
79	0x3edc71b5	0.43055502
80	0x3f1f6081	0.6225663
81	0xbf77bd89	-0.9677358
82	0xbebc4d7b	-0.36777863
83	0x3f2c0afb	0.67204255
84	0xbe7a4e44	-0.24443918
85	0xbe7d7cea	-0.24754682
86	0xbebc7297	-0.36806175
87	0x3ed530ba	0.41638738
88	0x3ef447dd	0.47711077
89	0x3f01caaf	0.50699896
90	0xbe521025	-0.20513971
91	0xbf824894	-1.0178399
92	0xbf16a3e1	-0.5884381
93	0x3f254d4a	0.6457106
94	0xbe07278b	-0.13198678
95	0x3e5a72b2	0.21332815
96	0x3ee29e93	0.44261608
97	0x3ee5e186	0.44898623
98	0x3ddf0a10	0.10890591
99	0x3ecb774e	0.3973946
100	0x3f00e2da	0.5034615
101	0x3f7de5b0	0.991786
102	0x3f039a16	0.5140699
103	0x3ee80d07	0.4532244
104	0xbfd7abdd	-1.6849324
105	0x3d8e4ed2	0.069486275
106	0x3e83a8d5	0.25714746
107	0x3eb4ae91	0.35289434
108	0xbec293cf	-0.38003394
109	0x3ed476e5	0.4149696
110	0x3f179781	0.5921555
111	0xbd8193e8	-0.06327039
112	0x3ea6de4f	0.32591483
113	0xbe561bd9	-0.2090906
114	0xbda96788	-0.082717
115	0xbdf3d519	-0.119058795
116	0x3cb1e530	0.02171573
117	0x3e2d5f2f	0.16930841
118	0xbe258bc6	-0.161666
119	0x3e08dca3	0.13365416
120	0xbec52386	-0.38503665
121	0xbe270a37	-0.1631249
122	0xbe9530c8	-0.2913878
123	0xbf015714	-0.50523496
124	0xbc2564fc	-0.010094877
125	0xbeec5941	-0.46161845
126	0xbe702d4c	-0.2345478
127	0xbfbed198	-1.4907713
128	0xbf1a2235	-0.60208446
129	0xbf041bbc	-0.5160482
130	0x3f6904c6	0.9102291
131	0x3eefeb29	0.468591
132	0xbe94a7a6	-0.29034156
133	0xbe8adbfc	-0.2712096
134	0x3e09e36a	0.13465658
135	0x3d79cc4e	0.060985856
136	0xbf3edd5a	-0.74556506
137	0x3eb51d15	0.3537375
138	0xbea37e60	-0.31932354
139	0xbf2d506c	-0.6770084
140	0xbe9c2de5	-0.30503765
141	0xbcbd1f61	-0.023086252
142	0x3e99ee09	0.3006442
143	0x3edb4742	0.42827803
144	0x3e9c3c27	0.30514643
145	0xbc309939	-0.010778719
146	0x3e61d40e	0.22053549
147	0xbf229d49	-0.6352125
148	0xbecd1a8b	-0.40059313
149	0x3e8cdd6c	0.2751268
150	0xbedb11f2	-0.4278713
151	0x3f322b6c	0.69597507
152	0x3ef23f87	0.47314093
153	0xbeff588a	-0.49872237
154	0xbf5ebf2a	-0.87010443
155	0xbf2f4c59	-0.6847587
156	0x3edbedfe	0.4295501
157	0x3f6a7b42	0.91594326
158	0x3f08944d	0.5335129
159	0x3ee0340b	0.43789706
160	0x3dc01d09	0.09380538
161	0x3e2f096b	0.17093436
162	0x3ec8d235	0.39222875
163	0xbe8431b0	-0.2581916
164	0xbedd47f7	-0.43218967
165	0xbe857feb	-0.26074156
166	0xbf87f457	-1.0621442
167	0x3f0891a9	0.5334726
168	0x3f444023	0.76660365
169	0xbe91ebc4	-0.28500187
170	0xbf013f57	-0.50487274
171	0x3f4eb62a	0.8074671
172	0x3f83273b	1.0246347
173	0x3e01c0de	0.12671229
174	0xbec90732	-0.39263302
175	0xbe4dda01	-0.20102693
176	0x3f3637ff	0.71179193
177	0xbe1a7520	-0.15083742
178	0x3e7d453f	0.24733447
179	0xbd4dde58	-0.05026087
180	0x3f14abe5	0.5807479
181	0x3e8f3155	0.27967325
182	0x3e74a6e4	0.23891789
183	0x3e613aa8	0.21995032
184	0xbf957ef4	-1.1679368
185	0xbf63656c	-0.8882663
186	0x3ddff98a	0.10936268
187	0xbdf19c89	-0.11797435
188	0x3f8e0c42	1.1097491
189	0xbe9955ca	-0.29948264
190	0x3d96bae3	0.073598646
191	0xbe19c691	-0.15017153
192	0x3f3b98b1	0.73279864
193	0xbf1a3bf5	-0.6024774
194	0xbef8b7df	-0.48577783
195	0xbf04f09c	-0.5192964
196	0xbeac669b	-0.33672032
197	0x3c0b180f	0.008489623
198	0xbdb9f035	-0.09079019
199	0xbf61c464	-0.88190293
200	0xbf142b7f	-0.5787887
201	0xbe6765cf	-0.2259743
202	0x3f83ec9d	1.0306584
203	0x3f2ba2ab	0.67045087
204	0xbf49a772	-0.78771126
205	0x3f46d156	0.7766317
206	0x3e988123	0.29786023
207	0x3f0b19f5	0.5433648
208	0xbeb30e97	-0.3497207
209	0x3e670a12	0.22562435
210	0x3e82c6f6	0.2554242
211	0xbe89e94a	-0.26935798
212	0x3f21795d	0.6307581
213	0x3f918d22	1.1371195
214	0xbee7d698	-0.4528091
215	0xbee00702	-0.43755347
216	0xbeff0079	-0.49805048
217	0x3fd24e51	1.643015
218	0xbd2e7759	-0.042594288
219	0x3e49337c	0.19648546
220	0xbd58749d	-0.052845586
221	0x3eddc131	0.43311456
222	0xbe532de7	-0.20622979
223	0xbe5911d8	-0.21198213
224	0xbf420345	-0.7578624
225	0x3e40803f	0.18798922
226	0xbd949214	-0.07254425
227	0xbd210a9b	-0.039316755
228	0x3ef73d54	0.48288977
229	0xbedd24e9	-0.43192223
230	0x3ee274c2	0.44229704
231	0xbe0d4e98	-0.13799512
232	0xbeef17a3	-0.4669772
233	0x3edf1db9	0.43577364
234	0x3eda89c7	0.4268324
235	0xbf4744fb	-0.7783963
236	0x3e46398a	0.19357887
237	0x3e193c04	0.149643
238	0x3dd82371	0.10553635
239	0x3f201dac	0.62545276
240	0x3ece3c2c	0.40280282
241	0xbe6de206	-0.23230752
242	0x3e7be415	0.24598725
243	0x3e90c82a	0.28277713
244	0x3d931d14	0.071832806
245	0xbee61bc9	-0.44943073
246	0xbf1396a7	-0.5765175
247	0xbe41a5ef	-0.18910955
248	0xbe245861	-0.16049339
249	0x3eca95a1	0.39567283
250	0x3f3eab7f	0.7448043
251	0x3e45a826	0.19302425
252	0xbe5d64e1	-0.21620513
253	0xbf2e4be2	-0.6808454
254	0xbe78f743	-0.24313073
255	0xbe6caa2a	-0.23111787

model.convs1.3.bias f4 [32]
0	0x3e703052	0.23455933
1	0x3ee5c7e7	0.44879076
2	0x3ed68b3e	0.41903108
3	0x3ea818bb	0.32831368
4	0xbe219df9	-0.15782918
5	0xbf6908fb	-0.9102933
6	0xbf2a7e84	-0.665993
7	0x3d95810c	0.07300004
8	0x3eac66c9	0.3367217
9	0x3f87b255	1.0601298
10	0x3f35ad5b	0.70967644
11	0x3d794a8d	0.060862113
12	0xbf284643	-0.6573221
13	0xbf21cf22	-0.63206685
14	0xbfa96315	-1.3233362
15	0xbd0bf00d	-0.034164477
16	0x3fb37f33	1.4023193
17	0x3eee4410	0.46536303
18	0xbef13b79	-0.47115687
19	0xbf31cf3c	-0.6945684
20	0xbf2671ef	-0.650176
21	0x3ed639f9	0.41841105
22	0x3edfb5e9	0.43693474
23	0xbcc4a099	-0.02400236
24	0x3f14440b	0.57916325
25	0x3ef30a28	0.47468686
26	0x3f02e7c0	0.5113487
27	0xbd53e8ff	-0.051735874
28	0xbf4e4465	-0.8057311
29	0xbe58c418	-0.21168554
30	0xbe9f5aec	-0.31124055
31	0xbdf176e9	-0.117902584

model.convs1.4.weight f4 [16, 32]
0	0xbdbd2814	-0.0923616
1	0xbea096d8	-0.31365085
2	0xbe2df855	-0.16989262
3	0x3ee45a26	0.44600028
4	0xbf680c20	-0.906435
5	0xbf43c2e2	-0.7646924
6	0xbf00b3e0	-0.5027447
7	0x3bf83e15	0.00757576
8	0xbeafb096	-0.34314412
9	0xbe24d797	-0.16097866
10	0xbf15535c	-0.5833032
11	0x3ed165bd	0.40897933
12	0xbebb578d	-0.36590233
13	0x3ec21a1f	0.37910554
14	0xbefbc32a	-0.49172336
15	0x3f31ea40	0.6949806
16	0x3dae9224	0.08523968
17	0x3f0b2533	0.54353637
18	0xbee5f0f9	-0.4491041
19	0xbe940689	-0.28911236
20	0xbda8b1d0	-0.0823704
21	0x3e044cab	0.12919872
22	0x3ec58c40	0.38583565
23	0xbd23ed09	-0.040020976
24	0x3f211cc9	0.6293455
25	0xbee361d1	-0.44410565
26	0x3ead3140	0.33826637
27	0xbd978d72	-0.074000254
28	0xbe35ecf1	-0.17766167
29	0x3da9f864	0.0829933
30	0x3f381330	0.7190428
31	0x3f033641	0.5125466
32	0x3ebc1925	0.36737934
33	0xbed327e9	-0.41241387
34	0xbf3a61f1	-0.72805697
35	0xbf9f5e23	-1.2450603
36	0x3e89153a	0.26774007
37	0xbf15fa34	-0.58584905
38	0x3f3d9556	0.74055994
39	0xbe94db0d	-0.29073372
40	0xbda4f329	-0.080541916
41	0x3d3a635f	0.045504924
42	0xbe4fed4d	-0.20305367
43	0xbee03f6a	-0.4379838
44	0xbebdb29c	-0.3705033
45	0xbe20361e	-0.15645644
46	0x3c2c4ef5	0.010516872
47	0x3e056b23	0.1302915
48	0x3daa8256	0.08325641
49	0x3e011e23	0.12609152
50	0xbe9e51e5	-0.30921856
51	0xbf1d4664	-0.6143553
52	0x3f58fd8c	0.8476188
53	0xbf0f86b7	-0.56064934
54	0xb994e3e0	-0.0002839854
55	0xbeb2f025	-0.3494884
56	0x3eaab6f4	0.33342707
57	0x3f3430cc	0.7038696
58	0x3d87b5e0	0.06626487
59	0x3dc7da4f	0.09758436
60	0x3e2d2e3c	0.16912168
61	0x3efcad8f	0.49351165
62	0xbded7853	-0.11595216
63	0x3ebe3a11	0.37153676
64	0xbc2c39d0	-0.01051183
65	0xbeadf88f	-0.33978698
66	0x3ef72fe0	0.48278713
67	0x3f824987	1.0178689
68	0xbec8b052	-0.39197022
69	0x3f2ae68e	0.6675805
70	0x3e24fd42	0.16112235
71	0xbe9f04a7	-0.31058237
72	0xbe9f0e56	-0.31065625
73	0xbf445f02	-0.7670747
74	0x3f3db7ac	0.74108386
75	0xbf2aae8e	-0.666726
76	0x3e9fe8c7	0.31232283
77	0x3ee98e6d	0.45616475
78	0xbee25c7c	-0.44211185
79	0x3eb4aa73	0.35286292
80	0x3eadb8f8	0.33930182
81	0xbea01185	-0.31263366
82	0x3f340260	0.70316124
83	0x3e27a2e0	0.16370726
84	0x3ef8f2d6	0.4862277
85	0xbf0e5cf3	-0.5561058
86	0xbeae276e	-0.34014457
87	0xbe6aa7b2	-0.22915533
88	0x3ec71267	0.38881227
89	0xbf43b906	-0.764542
90	0xbd9043e0	-0.07044196
91	0xbf260146	-0.64845693
92	0x3ed58bbf	0.4170818
93	0x3e218fe9	0.15777554
94	0x3d26e4e9	0.04074565
95	0x3f8b4956	1.0881755
96	0xbe26f71a	-0.163052
97	0x3eed41b0	0.46339178
98	0xbe1720b9	-0.14758576
99	0x3eaaa0a4	0.33325684
100	0x3f07e028	0.5307641
101	0xbee90390	-0.4551053
102	0xbd94338a	-0.07236393
103	0x3e66f2c3	0.22553544
104	0x3f5fcfb8	0.8742633
105	0xbe6555b9	-0.22395982
106	0x3dd239c3	0.102649234
107	0xbf0c2d01	-0.5475617
108	0xbdcc836c	-0.09986004
109	0xbec17a88	-0.37788796
110	0xbeddaef1	-0.43297532
111	0x3ef66269	0.48121956
112	0x3f1b43a5	0.6065009
113	0xbeab97f4	-0.3351437
114	0xbe6146fc	-0.21999735
115	0xbdf1abad	-0.11800323
116	0xbf10e059	-0.5659233
117	0x3e5af651	0.21383025
118	0x3f918d9a	1.1371338
119	0x3ecbc88a	0.39801437
120	0x3f070dc2	0.5275537
121	0xbef443a6	-0.47707862
122	0xbe1530be	-0.14569375
123	0x3e8489dd	0.2588643
124	0xbf222c35	-0.63348705
125	0x3e2940ad	0.16528578
126	0xbe330319	-0.1748165
127	0x3f2b191a	0.66835177
128	0xbed86d39	-0.4227083
129	0xbc698735	-0.014253427
130	0x3db0d6cf	0.086347215
131	0x3f64e2e7	0.89408726
132	0x3f8c5cc8	1.0965815
133	0xbcdb80c9	-0.026794808
134	0xbccb492c	-0.024815165
135	0x3ccf72d0	0.025323302
136	0x3c064d80	0.008197188
137	0xbead2ae2	-0.3382178
138	0xbdce6dcf	-0.10079538
139	0x3e94a960	0.29035473
140	0x3e691d22	0.2276502
141	0xbf3bd4ba	-0.7337147
142	0x3f4ee61b	0.80819863
143	0x3ea6d88c	0.32587087
144	0xbe6ccd8d	-0.23125286
145	0xbdb41fac	-0.087951034
146	0xbe39d48b	-0.18147485
147	0xbf7bdd72	-0.98384774
148	0x3d7a5a69	0.061121378
149	0x3f5860d1	0.8452273
150	0x3ea15b37	0.31514904
151	0x3ebf09d1	0.37312177
152	0xbe2e779d	-0.17037816
153	0x3f3000bf	0.6875114
154	0xbd2530d7	-0.04032978
155	0xbf681e6a	-0.9067141
156	0x3d997828	0.07493621
157	0xbe1932ed	-0.14960833
158	0xbf518c2e	-0.8185452
159	0xbec0060e	-0.3750462
160	0xbe6ac19d	-0.2292542
161	0x3e9f888e	0.3115887
162	0x3f6f1693	0.9339382
163	0x3e321db0	0.17394137
164	0x3f0aabde	0.541685
165	0xbebb1050	-0.36535883
166	0x3e4206e4	0.18947941
167	0xbe2caf1a	-0.16863671
168	0xbf1ed694	-0.6204617
169	0xbcc03bb6	-0.023465972
170	0xbe0e0b83	-0.13871579
171	0x3ea7a67c	0.32744205
172	0xbe494419	-0.19654883
173	0xbf595ed5	-0.8491033
174	0x3f87b290	1.0601368
175	0xbf1f3ae9	-0.62199265
176	0x3f4b9594	0.79525113
177	0xbf92f4bb	-1.1480936
178	0xbf1b9079	-0.6076732
179	0xbe38b40d	-0.18037434
180	0xbe78e9a3	-0.24307875
181	0xbe868d56	-0.26279706
182	0x3f9f5125	1.2446638
183	0x3eadaa00	0.33918762
184	0xbf1c7b32	-0.6112548
185	0xbe029684	-0.1275273
186	0x3f682bd6	0.9069189
187	0x3c1318f0	0.0089781135
188	0xbf2bd7f9	-0.67126423
189	0xbddfd910	-0.10930073
190	0x3e07ac8e	0.13249418
191	0x3e864614	0.2622534
192	0xbdaa6122	-0.08319308
193	0x3d84d273	0.064854525
194	0x3d55e7c1	0.05222297
195	0xbeed5fa9	-0.46362045
196	0xbf92cfe1	-1.146969
197	0x3db1f4ce	0.08689271
198	0xbf19bf96	-0.6005796
199	0xbeada179	-0.33912256
200	0xbe31a2e7	-0.17347299
201	0x3f257fe6	0.6464828
202	0x3f46c90d	0.7765053
203	0x3ebd174c	0.36931837
204	0xbfd25b2c	-1.6434073
205	0xbf91c906	-1.1389472
206	0xbe3a4f34	-0.18194276
207	0xbeb202a8	-0.34767652
208	0x3ed438b1	0.41449502
209	0xbdbc4817	-0.091934375
210	0x3e801c4f	0.25021598
211	0xbe9d69d7	-0.30744812
212	0xbf4130dd	-0.75465184
213	0x3e50b454	0.2038129
214	0x3ed84196	0.42237538
215	0xbf3df258	-0.7419791
216	0x3ebba22d	0.36647168
217	0x3f4bcb8e	0.79607475
218	0x3c1dd858	0.0096341
219	0x3eb9dd14	0.36301482
220	0x3e40b9f6	0.18820938
221	0x3ec4e084	0.38452542
222	0x3f878f3d	1.0590588
223	0xbdf29ceb	-0.11846336
224	0xbf208357	-0.6270041
225	0xbf44b3ae	-0.7683667
226	0x3debf12c	0.11520609
227	0x3f37f6d6	0.71861017
228	0x3e392f90	0.1808455
229	0xbf187991	-0.59560496
230	0xbea6c433	-0.32571563
231	0xbe5717f7	-0.21005236
232	0xbe1e5d3d	-0.15465255
233	0x3f7ddb6a	0.99162924
234	0x3ec54ce2	0.3853522
235	0xbf0debca	-0.5543791
236	0xbb963d67	-0.0045849564
237	0x3ea380a9	0.31934097
238	0xbea041f0	-0.31300306
239	0xbedb0992	-0.4278074
240	0x3ee828cd	0.4534363
241	0x3f25e24b	0.6479842
242	0xbe9aa7cf	-0.30206153
243	0xbe5c6120	-0.21521425
244	0x3e25eb2d	0.16202994
245	0xbf4c8fb9	-0.79906803
246	0xbf224d01	-0.6339875
247	0xbece2bb7	-0.40267727
248	0x3fa7d81c	1.3112826
249	0x3d8fc07a	0.07019134
250	0x3eeef939	0.46674517
251	0x3e9ffe44	0.31248677
252	0xbf984307	-1.1895455
253	0xbea263d6	-0.31716794
254	0xbec2fe56	-0.38084668
255	0x3ed88aa5	0.42293277

model.convs1.4.bias f4 [16]
0	0x3e08e253	0.13367586
1	0x3d8f36a8	0.06992847
2	0xbf4e1c78	-0.8051219
3	0x3eb9308d	0.36169854
4	0xbc64fa32	-0.013975667
5	0x3f3b4e07	0.73165935
6	0x3f57fc1f	0.8436908
7	0x3fa94ada	1.3225968
8	0xbdd7ff47	-0.10546737
9	0x3e2ffcc9	0.17186274
10	0x3f190d58	0.59785986
11	0xbe1d5a84	-0.1536656
12	0x3f4732ff	0.7781219
13	0x3f71069a	0.941507
14	0x3f1c6149	0.61085945
15	0xbf9e2a34	-1.2356629

model.convs1.5.weight f4 [16, 16]
0	0x3ed00b5c	0.40633667
1	0x3f2aed22	0.66768086
2	0x3f3424c1	0.7036858
3	0xbf758ef3	-0.9592125
4	0xc040d34e	-3.012897
5	0x3f9b589d	1.2136418
6	0x3f7ce1c8	0.98782015
7	0xbe08f9ae	-0.13376495
8	0x3e37de9b	0.17956011
9	0xbfc4997f	-1.5359343
10	0x3febab80	1.8411713
11	0xbea1635b	-0.31521115
12	0xbf069dee	-0.5258473
13	0xbdbef956	-0.09324901
14	0xbe55923f	-0.2085657
15	0x3f17aa00	0.59243774
16	0xbe1e54dd	-0.1546206
17	0xbe1c653f	-0.15272997
18	0xbe403ca3	-0.18773131
19	0x3ef574ae	0.47940582
20	0x3f2cec16	0.6754774
21	0x3f480b87	0.7814259
22	0xbe0e3ea4	-0.13891083
23	0xbdfba1c3	-0.12286713
24	0x3e632ade	0.22184321
25	0x3e3fca82	0.18729594
26	0xbe60e60f	-0.2196276
27	0xbe8a3d39	-0.26999834
28	0x3f9e5755	1.2370402
29	0x3d93d434	0.07218209
30	0xbf32394a	-0.69618666
31	0xbe9c4f46	-0.3052923
32	0xbefea2be	-0.49733537
33	0xbe6883d9	-0.22706546
34	0xbf159b47	-0.5844006
35	0x3dbe6e22	0.0929835
36	0x3e1a1fad	0.15051146
37	0xbeedc446	-0.46438807
38	0x3f0a9b20	0.5414295
39	0x3e0db4ab	0.1383845
40	0xbee66068	-0.44995427
41	0x3e9e3488	0.30899453
42	0xbe05dfda	-0.13073674
43	0xbea5e88a	-0.32403976
44	0xbf4bdbe5	-0.7963241
45	0x3eb60731	0.35552362
46	0x3f922c2e	1.1419733
47	0xbf363910	-0.7118082
48	0xbf0717c1	-0.5277062
49	0x3efd16a1	0.49431327
50	0xbf07c627	-0.5303673
51	0x3e0b8776	0.13625893
52	0xbc458f41	-0.01205808
53	0x3d62519b	0.055253606
54	0x3dba9423	0.09110286
55	0xbf03feea	-0.51560843
56	0x3da3b34a	0.07993181
57	0xbe0e4f35	-0.13897403
58	0x3eed28ff	0.4632034
59	0xbf2a311a	-0.66481173
60	0x3e9b172c	0.30291116
61	0x3f2efd1f	0.6835498
62	0x3f33ebd8	0.70281744
63	0xbe26c063	-0.16284327
64	0x3f6fbb70	0.9364538
65	0xbf962c1d	-1.1732212
66	0x3c942033	0.01808176
67	0x3b1fda52	0.0024391604
68	0x3f41b2b8	0.7566333
69	0xbf010c5a	-0.5040947
70	0x3e1f66bd	0.15566535
71	0x3f4a6968	0.7906709
72	0xbf40ccf1	-0.75312716
73	0x3e4d4795	0.20046838
74	0xbf492a75	-0.7858041
75	0x3e4e172a	0.20126024
76	0x3f078903	0.5294344
77	0xbe1b3547	-0.15157042
78	0x3f556ee3	0.83372325
79	0xbfc76cb5	-1.558005
80	0x3f7314b3	0.9495346
81	0xbf99b24b	-1.2007536
82	0x3fbb8acc	1.4651732
83	0x3e304958	0.17215478
84	0xbef47f07	-0.47753164
85	0xbe2557d1	-0.1614678
86	0xbf5b7005	-0.85717803
87	0xbea17071	-0.31531098
88	0x3db90389	0.090338774
89	0x3e72e892	0.23721531
90	0xbe6c91c6	-0.23102483
91	0x3d96ce5b	0.07363578
92	0x3d3f52a6	0.04670968
93	0x3d76dc16	0.060268484
94	0x3e7d91cd	0.2476265
95	0x3de291c5	0.110629596
96	0x3ee2ed4e	0.44321674
97	0xbe61a404	-0.22035223
98	0x3de13a9f	0.10997509
99	0xbef16888	-0.47150064
100	0x3f226692	0.6343776
101	0x3e931e3e	0.2873401
102	0xbec87738	-0.39153457
103	0xbfb73b6d	-1.431501
104	0x3f89dad7	1.076991
105	0xbcbcf98b	-0.02306821
106	0x3f45b1fd	0.77224714
107	0x3f1f5bae	0.6224927
108	0xbf73099b	-0.9493653
109	0xbf87d98c	-1.0613265
110	0x3f4dc025	0.80371314
111	0x3f8d0c89	1.101945
112	0xbe92c3a1	-0.28664878
113	0xbf374816	-0.7159437
114	0xbf178382	-0.5918504
115	0x3d93b4a2	0.07212187
116	0x3ed3a5e2	0.41337496
117	0x3e132608	0.14369977
118	0x3ef6a978	0.4817617
119	0x3e6878dc	0.22702354
120	0xbd07133f	-0.03297734
121	0xbee95bd6	-0.45577878
122	0x3e39d839	0.18148889
123	0x3fea0712	1.8283408
124	0x3dc229c6	0.09480624
125	0xbf6ca2c3	-0.92435855
126	0xbe93c771	-0.288631
127	0xbea9956b	-0.3312181
128	0xbed9a05d	-0.4250516
129	0xbf2d699f	-0.6773929
130	0xbf9083f0	-1.1290264
131	0xbe13d6ca	-0.14437404
132	0xbee96b32	-0.45589596
133	0x3edc8a74	0.4307438
134	0x3eb45294	0.35219252
135	0x3f1d0ef1	0.61350924
136	0xbfb7465f	-1.431835
137	0xbeed0d82	-0.46299368
138	0x3e9f5260	0.31117535
139	0xbee9e113	-0.4567953
140	0x3f72393f	0.946186
141	0x3fd08d2c	1.6293082
142	0xbe4495e5	-0.19197805
143	0xbfa252ae	-1.2681482
144	0xbf04bbf9	-0.51849324
145	0x3aa931a5	0.0012908472
146	0xbc17409a	-0.009231711
147	0x3d038ef3	0.03211875
148	0xbe40a63e	-0.18813416
149	0x3f1fea93	0.62467307
150	0xbd888b49	-0.066671915
151	0xbd53fcc9	-0.051754747
152	0xbeb8ab16	-0.36068028
153	0x3e513a6f	0.20432447
154	0xbf1639a1	-0.58681685
155	0xbf69a568	-0.91268015
156	0x3ea55b24	0.32296097
157	0x3d9384a9	0.07203037
158	0x3f4eb824	0.80749726
159	0x3eb04cc7	0.34433576
160	0x3e7629b9	0.24039353
161	0xbda67565	-0.0812786
162	0x3e27f6f7	0.16402803
163	0xbe44d532	-0.19221953
164	0xbe91063c	-0.2832507
165	0xbe3abac6	-0.18235311
166	0xbdad757e	-0.084696755
167	0x3dbe24aa	0.09284337
168	0x3def2ea2	0.116788164
169	0xbd40b546	-0.047047876
170	0xbe9e4ad3	-0.3091646
171	0xbd1d1c41	-0.038357023
172	0x3e668c47	0.22514449
173	0x3dfbf59f	0.12302708
174	0x3e266481	0.16249277
175	0x3e02cd4c	0.12773627
176	0x3e93ae0a	0.2884372
177	0xbdcb7394	-0.09934154
178	0x3cc6955f	0.024241148
179	0xbf22d1b4	-0.6360123
180	0xbe7a79b8	-0.24460495
181	0xbf21473c	-0.6299932
182	0x3d3516fd	0.044211376
183	0x3ec6898e	0.3877682
184	0x3f027f25	0.5097526
185	0x3e716f98	0.23577726
186	0x3e1f373c	0.15548414
187	0xbf0d08e4	-0.5509169
188	0xbdbedf6c	-0.09319958
189	0xbda59a19	-0.080860324
190	0xbe3c6983	-0.18399625
191	0xbda45802	-0.08024599
192	0xbe766851	-0.24063231
193	0xbf73fbb2	-0.9530593
194	0x3de7aeb7	0.11312621
195	0x3e781d56	0.24229941
196	0x3ef85344	0.48501027
197	0x3e6777fc	0.22604364
198	0x3e8bf6ac	0.27336633
199	0xbe5d3c1f	-0.21604966
200	0xbf09f6d8	-0.5389228
201	0x3f035038	0.5129428
202	0xbe128565	-0.14308698
203	0xbec9189e	-0.39276594
204	0x3f37ce32	0.71799004
205	0xbf97d354	-1.1861367
206	0x3f119b25	0.56877357
207	0x3e0fbfda	0.1403803
208	0x3f3c7369	0.736136
209	0x3f2040e4	0.62599015
210	0xbea0ddf6	-0.31419343
211	0xbedf7156	-0.43641156
212	0xbee61491	-0.44937566
213	0x3eeb3fb6	0.45947045
214	0xbedc8b00	-0.430748
215	0xbf193828	-0.5985131
216	0xbda8985e	-0.08232187
217	0x3c79e17c	0.015251514
218	0x3fbfb146	1.4975975
219	0x3f7854d1	0.9700442
220	0x3eecc0a2	0.46240717
221	0xc0141bd8	-2.3141994
222	0x3ebae76d	0.3650469
223	0x3eb42ef4	0.35192072
224	0x3dd5d0ff	0.104402535
225	0x3db83e2a	0.08996232
226	0x3e7f63a5	0.24940355
227	0x3c0d09c1	0.008608283
228	0x3e035e37	0.12828909
229	0x3f6010d7	0.87525696
230	0xbf17b475	-0.5925973
231	0xbe46b012	-0.19403103
232	0x3ec38ba2	0.3819247
233	0xbd9a89d8	-0.07545823
234	0xbe5f79b1	-0.21823765
235	0xbf779ce7	-0.9672379
236	0x3f8020b8	1.0009985
237	0x3e337e29	0.17528595
238	0xbf19098c	-0.5978019
239	0xbe866bd7	-0.2625415
240	0x3f3b5505	0.73176605
241	0x3dc2a3d8	0.09503907
242	0xbe11e399	-0.14246978
243	0x3e5f3b33	0.21799926
244	0x3ebbc545	0.36673942
245	0x3f0f1cdd	0.55903417
246	0xbea130f9	-0.31482676
247	0xbd168a5b	-0.03675304
248	0x3e547e02	0.20751193
249	0xbeac0e7c	-0.336048
250	0x3ec5a91b	0.3860558
251	0xbf368a48	-0.7130475
252	0x3f50c2b4	0.81547093
253	0x3e142402	0.14466861
254	0xbf3197b7	-0.69372123
255	0x3e68f9e4	0.22751576

model.convs1.5.bias f4 [16]
0	0xbf047f78	-0.51757
1	0x3e8c9742	0.2745915
2	0x3f349c8e	0.70551383
3	0x3de6521f	0.11246132
4	0x3ef61e6c	0.48070085
5	0xbeb1b161	-0.34705642
6	0xbf28ad3e	-0.65889347
7	0xbd7de074	-0.061981633
8	0x3f9a1843	1.2038654
9	0xbf0e7f87	-0.5566334
10	0x3e8abd08	0.27097344
11	0x3e5c3acc	0.21506804
12	0xbe5f356e	-0.21797726
13	0xbf61fc75	-0.88275844
14	0xbeccb9d3	-0.39985523
15	0x3e775750	0.24154401

model.convs2.0.weight f4 [16, 5]
0	0x3e9e35b5	0.3090035
1	0xbedbca46	-0.4292776
2	0x3e6ace74	0.22930318
3	0xbe232b15	-0.15934403
4	0xbef10dc8	-0.47080827
5	0xbf02e042	-0.5112344
6	0xbefe825d	-0.49708834
7	0x3f4c68e8	0.79847574
8	0xbe9fefec	-0.31237733
9	0xbe91626f	-0.2839541
10	0xbf981b2d	-1.1883293
11	0xbeffaade	-0.4993505
12	0xbebe3b0e	-0.3715443
13	0xbd2155cc	-0.039388463
14	0x3f81c1b5	1.013724
15	0xbc601cca	-0.013678739
16	0x3cc4009b	0.02392607
17	0xbed2bbfb	-0.41159043
18	0xbe52cf00	-0.20586777
19	0xbe6a4a1b	-0.22879831
20	0x3f907847	1.1286706
21	0xbe99b515	-0.30020967
22	0x3e229fbb	0.15881245
23	0xbdcf5bb2	-0.10124911
24	0x3f44c34e	0.7686051
25	0xbefc598c	-0.4928707
26	0x3e267e71	0.16259171
27	0xbe3fec28	-0.1874243
28	0x3deba45c	0.115059584
29	0xbff28238	-1.894599
30	0xbf3c17a9	-0.734736
31	0x3e8b10a3	0.2716113
32	0x3e310d93	0.17290334
33	0x3ec97524	0.39347184
34	0x3d914c9d	0.07094691
35	0x3e5ddac1	0.21665479
36	0xbf1d2753	-0.6138813
37	0x3d5adfc9	0.053436074
38	0xbdf84d0a	-0.12124069
39	0xbe7ce27a	-0.24695769
40	0xbf0ea65e	-0.55722606
41	0xbe4c2f4c	-0.19939917
42	0xbe4aefe4	-0.19818074
43	0x3db580a5	0.088624276
44	0x3e877397	0.26455376
45	0xbf07a8ec	-0.5299213
46	0x3cd5167a	0.026011694
47	0xbe5f9cd5	-0.2183717
48	0x3dcae5af	0.0990709
49	0x3f28fec4	0.6601374
50	0x3e65aa23	0.22428183
51	0xbe7e2bc1	-0.24821378
52	0x3f8943b6	1.0723789
53	0xbd22a4d8	-0.03970799
54	0x3f4727c0	0.7779503
55	0xbf4d32f3	-0.8015587
56	0xbdff97df	-0.12480139
57	0xbfa9e625	-1.327336
58	0xbe89f2f5	-0.26943174
59	0xbf20c239	-0.6279636
60	0x3fa81ba4	1.3133435
61	0xbae1bda9	-0.0017222661
62	0x3edf1474	0.43570292
63	0xbdfc8d95	-0.12331692
64	0x3fb103b2	1.3829253
65	0x3fc227cb	1.5168394
66	0x3e86f04d	0.2635521
67	0xbf4b833e	-0.79497135
68	0x3ecb58d4	0.39716208
69	0x3f13678c	0.57579875
70	0x3d8871f2	0.06662358
71	0xbeae6530	-0.34061575
72	0x3d4bb9bd	0.04973768
73	0xbe8ca1bf	-0.27467152
74	0xbfaa15f5	-1.3287951
75	0xbd55cf3c	-0.052199587
76	0x3f0a6370	0.5405798
77	0xbf1b6069	-0.60693985
78	0x3e187e7b	0.14891998
79	0x3ecee827	0.40411493

model.convs2.0.bias f4 [16]
0	0xbeeef987	-0.4667475
1	0xbf10ab20	-0.56511116
2	0x3f3e318a	0.7429434
3	0xbf03b60b	-0.5144965
4	0x3fdf24f1	1.7433149
5	0x3f5357e0	0.8255596
6	0x3cdc9191	0.02692488
7	0xbf02c049	-0.51074654
8	0x3f51c79c	0.81945205
9	0x3f82c5da	1.021663
10	0x3a977419	0.0011554986
11	0xbf40c0fa	-0.7529446
12	0xbe0eec4b	-0.13957326
13	0x3c4ce90b	0.012506734
14	0x3dbf8f5e	0.09353517
15	0xbc470b08	-0.012148626

model.convs2.1.weight f4 [16, 16]
0	0x3f80a27d	1.0049587
1	0x3fc6870d	1.5509964
2	0xbf53f9e5	-0.82803184
3	0xbf5c3a7b	-0.86026734
4	0xbe407ddc	-0.18798012
5	0xbef813dc	-0.48452652
6	0xbf56ee7c	-0.8395765
7	0x3f024ee2	0.50901616
8	0x3f863c33	1.0487121
9	0xbf81e998	-1.0149412
10	0x3ff6af04	1.927216
11	0xbe7e6cb3	-0.24846153
12	0x3e804f3a	0.25060445
13	0x3e16b8d2	0.14718941
14	0x3bd694b1	0.006548487
15	0xbe6cbfd4	-0.23120052
16	0x3e3d807a	0.18506041
17	0x3d86bfcb	0.0657955
18	0x3de346c8	0.11097485
19	0xbf9d686e	-1.2297494
20	0x3d49445d	0.049137462
21	0xbf033926	-0.51259077
22	0x3e90b481	0.28262714
23	0xbf9f5209	-1.244691
24	0xbfbd5e16	-1.4794338
25	0x3ed90988	0.42390084
26	0x3e727f77	0.23681436
27	0x3faa1d92	1.3290274
28	0xbeb649d8	-0.35603213
29	0x3f5e1e5f	0.8676509
30	0xbe8653fb	-0.26235947
31	0x3ee50fa3	0.44738492
32	0x3efaa11f	0.4895105
33	0xbec4b9b1	-0.3842292
34	0x3db3e57b	0.08784004
35	0x3eaaaecd	0.33336487
36	0xbdbfb375	-0.093604006
37	0x3e1b2a04	0.15152746
38	0xbf254a3e	-0.6456641
39	0x3f0b8146	0.5449413
40	0xbf891234	-1.070868
41	0x3d9b9cbc	0.07598254
42	0xbf22d0fc	-0.63600135
43	0xbf7df272	-0.9919807
44	0x3edcdc6d	0.43136922
45	0x3f6b20c8	0.91846895
46	0x3f0a3af6	0.5399622
47	0x3c389a4c	0.011267256
48	0x3d934556	0.07190959
49	0xbfd57cd9	-1.6678725
50	0x3f977071	1.1831189
51	0xbe8fb679	-0.28068903
52	0xbe98268b	-0.29716906
53	0x3ffb06ee	1.961149
54	0x3fccb20d	1.5991837
55	0xc011d2d4	-2.278493
56	0xbfde3bcc	-1.7361999
57	0x3fc6f861	1.5544549
58	0xbf93d666	-1.1549804
59	0xbf2ab2b0	-0.66678905
60	0xbebdac0f	-0.37045333
61	0xbfaf8067	-1.371106
62	0xbf4e9f69	-0.8071199
63	0x40042f12	2.065373
64	0xbc8cc085	-0.017181644
65	0x3efbdf63	0.49193868
66	0xbf0316b7	-0.51206535
67	0xbf8fa46e	-1.1222055
68	0x3f85e1f9	1.0459586
69	0x3f50df01	0.81590277
70	0xbda2b36f	-0.079443805
71	0xbec3e40c	-0.38259923
72	0xbdeeb373	-0.11655321
73	0x3f5eb5af	0.8699598
74	0xbede558f	-0.4342465
75	0x3b97b0a2	0.0046292106
76	0xbfc14f56	-1.5102336
77	0xbf28fb20	-0.66008186
78	0xbca6bfa1	-0.020355048
79	0x3f1bcdd0	0.6086092
80	0xbe83d956	-0.25751752
81	0xbe11596e	-0.14194271
82	0xbea1076d	-0.31450978
83	0xbf75470e	-0.95811546
84	0x3f3ab172	0.7292701
85	0x3d914f75	0.07095233
86	0xbf4e2bc3	-0.80535525
87	0x3f5ae0ac	0.8549907
88	0xbebea93e	-0.37238497
89	0x3ec1ed1d	0.37876216
90	0xbed72975	-0.42023817
91	0x3fc6cce0	1.5531273
92	0xbd826aec	-0.0636805
93	0xbf070998	-0.52749014
94	0xbd63b582	-0.05559302
95	0x3e9b3dc6	0.30320567
96	0xbe6dd516	-0.23225817
97	0xbf2bca0c	-0.67105174
98	0xbe03c129	-0.12866654
99	0x3e7d7439	0.24751367
100	0x3f0d951e	0.5530566
101	0x3efca7a2	0.49346644
102	0xbec7c8eb	-0.39020476
103	0xbe8c2216	-0.27369756
104	0xbf253c95	-0.64545566
105	0x3f0c856b	0.5489108
106	0xbfa661a6	-1.299855
107	0x3efe8bf5	0.49716154
108	0xbe812ca6	-0.25229377
109	0xbf0271c4	-0.5095484
110	0xbec365b4	-0.3816353
111	0x3fbea25d	1.4893299
112	0xbf10331f	-0.56328005
113	0xbde6be98	-0.112668216
114	0xbf67155b	-0.9026696
115	0xbf9d41a8	-1.2285662
116	0x3e8d8175	0.2763783
117	0x3fce25b4	1.6105256
118	0xbf16873d	-0.5880011
119	0x3fa667f6	1.3000476
120	0x3fd874af	1.6910609
121	0x3e4b578f	0.1985762
122	0x3ecb27d5	0.39678827
123	0xbf5063c9	-0.8140226
124	0xc01e0004	-2.468751
125	0xbebaa8ee	-0.36457008
126	0x3f80703e	1.0034254
127	0x3d433ef8	0.047667474
128	0xbf245e81	-0.642067
129	0xbf08baa3	-0.53409785
130	0x3ea53381	0.32265857
131	0x3f10ff9f	0.56640047
132	0xbdbcb29f	-0.09213757
133	0xbf66136b	-0.8987338
134	0x4045ed50	3.0926094
135	0xc03b094c	-2.9224424
136	0x3f900661	1.1251947
137	0xbe1fd89d	-0.15609975
138	0xbfbbf175	-1.4683062
139	0x3da3e102	0.08001901
140	0x3f79d75d	0.97594243
141	0x3ece6f76	0.40319413
142	0xbfb18bf6	-1.3870838
143	0xbe14b9fc	-0.14524072
144	0xbf232168	-0.6372285
145	0x3edf78e0	0.43646908
146	0x3f0a8b08	0.54118395
147	0x3e61c5cd	0.22048111
148	0x3f03119e	0.51198757
149	0x3debe0b5	0.11517469
150	0x3f0eb2ff	0.55741876
151	0xbf4e0edc	-0.80491424
152	0x3d805004	0.06265262
153	0x3e29b60e	0.16573355
154	0xbfb6222a	-1.4229176
155	0x3dd4f63d	0.10398529
156	0xbee621b0	-0.44947577
157	0x3f9b529a	1.2134583
158	0xbe940a85	-0.28914276
159	0x3f04a8a4	0.51819825
160	0x3ef468c8	0.47736192
161	0xbf6c127c	-0.92215705
162	0xbdd7cf11	-0.10537542
163	0xbf2a17d5	-0.66442615
164	0x3f1b003b	0.60547227
165	0xbf5097d4	-0.8148167
166	0x3f7bd232	0.9836761
167	0xbfe67806	-1.8005378
168	0xbf2f3009	-0.6843267
169	0x3f3ad7bf	0.7298545
170	0xbf3b8ab4	-0.7325852
171	0x3d229690	0.03969437
172	0x3ed27d6c	0.41111314
173	0x3f52941e	0.8225726
174	0xbf49ee89	-0.788796
175	0x3ebcb942	0.3686009
176	0x3fb6c6f8	1.427947
177	0xc025ea79	-2.592436
178	0x3fa55277	1.2915791
179	0xbf6af6ab	-0.91782635
180	0xbf08a88f	-0.533822
181	0xbf988313	-1.1915001
182	0x3ef30061	0.47461227
183	0x3eca22b9	0.39479616
184	0xbf50ac33	-0.81512755
185	0x3fc13e94	1.5097222
186	0x3ef072df	0.4696264
187	0x3f138883	0.57630175
188	0xbc4e3285	-0.012585287
189	0x3b063882	0.0020480459
190	0xbf92f04f	-1.1479586
191	0x3e8a2f5a	0.2698925
192	0xbf847bac	-1.0350242
193	0x3ef3ac7b	0.4759253
194	0x401a9ed3	2.4159439
195	0x3f0a3575	0.5398782
196	0xbe2c7f45	-0.16845424
197	0x3bbd2875	0.005772645
198	0x3ef96472	0.48709446
199	0xbdc45210	-0.09585965
200	0xbf96bf78	-1.1777182
201	0x3ee4df1a	0.44701463
202	0xbe0d5be4	-0.13804585
203	0xbfe8dd43	-1.8192524
204	0x3d449073	0.04798932
205	0x3fbd6846	1.4797447
206	0xc017fee1	-2.3749316
207	0xbeeb4434	-0.45950472
208	0x3f0a8a7c	0.5411756
209	0x3ecb117a	0.3966177
210	0x3f008b60	0.5021267
211	0xbf5b19fb	-0.8558652
212	0x3e2d8bd8	0.16947877
213	0xbf8efd53	-1.1171058
214	0x3e5d8541	0.21632864
215	0x3ec00688	0.37504983
216	0xbea3d4e0	-0.31998348
217	0x3ed2bdde	0.41160482
218	0x3fc4d707	1.5378121
219	0xbf668ceb	-0.90058774
220	0x3eb81e1c	0.35960472
221	0x3ef03fd3	0.46923694
222	0xbf2fadc9	-0.6862455
223	0xbf5cee85	-0.8630145
224	0x3edb582b	0.42840704
225	0x3ef42af4	0.4768902
226	0x3e3c4718	0.18386495
227	0x3f8bc6ee	1.0920084
228	0xbf2239c2	-0.6336938
229	0xc000a06b	-2.0097911
230	0xbf4d8c92	-0.8029262
231	0x3efb83e7	0.4912407
232	0x3f2824e9	0.6568132
233	0x3ed6ac3d	0.41928282
234	0x3e41f466	0.18940887
235	0x3fa13b33	1.2596191
236	0x4015012a	2.328196
237	0x3dcd296e	0.10017668
238	0xbf4b8b49	-0.7950941
239	0xbe895433	-0.2682205
240	0xbf96737f	-1.1753997
241	0xbecc35e3	-0.39884862
242	0x3ed6ec74	0.41977274
243	0xbfc72eaa	-1.5561116
244	0xbed17824	-0.40911973
245	0x3c17eaee	0.00927232
246	0xbf96d6dd	-1.1784321
247	0xbf61d9c6	-0.8822292
248	0x3f555d27	0.83345264
249	0x3f8879d8	1.0662184
250	0x3eb03527	0.34415552
251	0x3dd2c814	0.10292068
252	0x3f3834e8	0.7195573
253	0xbd971866	-0.073777005
254	0xbe8198d4	-0.2531191
255	0x3ed4139e	0.41421217

model.convs2.1.bias f4 [16]
0	0xbe604e37	-0.21904837
1	0xbe26ae19	-0.1627735
2	0x3f0488e1	0.5177136
3	0x3e48d7bb	0.19613545
4	0x3e8d08c9	0.27545765
5	0x3ed5176d	0.41619435
6	0x3eaae9fb	0.33381638
7	0xbdfa676e	-0.12226759
8	0xbdc4781a	-0.0959322
9	0x3f0ddc68	0.5541444
10	0x3f36c3c2	0.7139245
11	0xbe3a291c	-0.18179744
12	0xbd0ce5c5	-0.034398813
13	0x3f359c5c	0.7094171
14	0x3f4992f7	0.78739876
15	0x3ef97dce	0.48728794
